data.pth (torch, 9239 bytes, 6 tensors)

l1.weight f4 [8, 126]
-0.6417413 0.53070927 0.19476642 1.0747063 0.8506082 0.120160304 -0.013043616 0.04380549
0.049692817 1.4551913 -0.67362976 0.016328387 0.1525131 0.75767183 0.30223143 0.13133383
0.71273434 0.027694164 -0.61430734 0.75710326 0.31066564 1.0077518 0.4375571 -0.1345179
0.028675241 0.49682528 1.4639803 0.5379925 -0.45180538 0.4845861 0.008918523 1.4955313
1.4179494 0.8128478 0.18598615 0.43692204 -0.07671692 0.23418826 -0.1985987 -0.7262955
-0.43760127 0.39392176 1.2594231 1.1042205 -0.11624387 0.06994001 -0.2154564 -0.25186062
-0.067504816 -0.5911622 0.7171579 0.07002128 0.35444024 -0.08182454 1.5516976 1.8033137
-0.28930345 0.67146564 -1.1641653 0.9396203 1.3082839 -0.64573306 -0.3792865 -0.08744331
0.18564732 -0.13425489 -0.058711052 -0.024071895 0.023521308 -0.29533145 1.1260685 -0.17038427
0.411691 -0.7428591 0.34584674 -0.2783438 -0.21538137 -0.2440331 -0.26782218 0.06645431
0.38111666 -0.5758325 0.017855063 -0.010055068 -0.008559474 0.02120088 -0.63156223 1.0754738
-0.2581716 0.09847481 0.6131209 0.3263496 -0.55922717 0.19783874 0.011974134 -0.6924033
0.37971097 -0.1558092 -0.20080122 -0.20340669 1.1241724 0.5232144 0.090441786 -0.32150263
0.22135454 -1.4417555 0.15843903 -0.97648394 0.10859503 0.07033817 0.029816924 1.5763667
-0.1252846 -0.28724062 0.06577094 -0.52797455 0.030777965 -0.571125 0.39118576 -0.98483956
0.08987935 -0.5046504 0.8617699 0.8537868 0.39733806 -0.24550049 -0.66683763 0.4690606
0.3164006 -0.42972702 0.12564738 0.18405345 0.28670487 0.5141501 0.3314358 -0.8377743
0.47336274 0.6610819 -0.021753578 -0.81616306 0.5730526 0.6525291 0.6887979 0.37831336
0.6525726 -1.1086757 -0.2689867 0.027221575 -0.24595615 1.6827111 0.3788051 0.35646075
1.5112294 0.4523302 -0.1431797 0.4479701 0.083334744 1.0495346 1.0220566 1.1263868
0.0088470625 0.64416033 0.4846484 0.14755371 0.4946035 0.596351 0.10582287 1.0979759
-0.8833806 -0.97176695 0.38697818 0.7463429 0.5871668 0.51593184 0.5444359 0.84934485
-0.44313502 -0.6248478 0.36066768 -0.16110964 -1.4121679 -0.02256611 0.8855231 -0.3570049
-1.2754813 0.019159315 -0.48748836 -0.76465297 -0.016233338 0.057143558 0.4380575 -0.20233811
-0.15148857 0.08510303 0.26976278 -0.5986022 -0.4745789 -0.064138986 -0.12760437 1.7386053
0.12627463 0.51630425 0.4751762 0.49665555 0.5240063 0.36867064 0.046562657 0.24306874
-0.050632164 0.33572966 -0.18018395 -0.5375959 0.554232 -0.62880486 -0.2747557 0.3700026
0.49658552 0.48557186 -0.3959854 -0.9076109 0.075454704 0.22860235 -0.31952107 0.62994003
0.54972404 0.5732502 -0.9628127 0.14823292 -0.37795505 -0.6971854 -0.08188256 -0.44483253
0.044318326 -0.5924934 1.0233301 0.9780367 0.34690192 0.06388369 0.014697352 -0.13125154
0.40403503 0.31368342 0.62107104 0.22918525 0.6515232 -0.58587515 -1.2415683 -0.3680564
-0.91444397 -0.9312294 0.37101012 0.9076935 1.2599235 -0.5133779 -0.44351935 0.81326354
00000000: 2849 24bf 90dc 073f d970 473e fa8f 893f
00000010: 76c1 593f 9b16 f63d e4b4 55bc 636d 333d
00000020: b28a 4b3d b543 ba3f 0073 2cbf 1cc3 853c
00000030: 652c 1c3e c8f6 413f 14be 9a3e 607c 063e
00000040: c275 363f dfde e23c 3f43 1dbf 85d1 413f
00000050: 910f 9f3e 03fe 803f 7c07 e03e 0fbf 09be
00000060: 57e8 ea3c e25f fe3e b563 bb3f e0b9 093f
00000070: 0953 e7be ab1b f83e ff1e 123c 926d bf3f
00000080: 5e7f b53f cb16 503f 2773 3e3e 3fb4 df3e
00000090: c31d 9dbd 0ccf 6f3e 755d 4bbe 80ee 39bf
000000a0: 460d e0be 1db0 c93e c734 a13f 1957 8d3f
000000b0: 4411 eebd b53c 8f3d 9aa0 5cbe e0f3 80be
000000c0: f73f 8abd 6856 17bf a997 373f 5167 8f3d
000000d0: 3179 b53e a093 a7bd 079e c63f fcd2 e63f
000000e0: 951f 94be 2ce5 2b3f 5e03 95bf f58a 703f
000000f0: d975 a73f c34e 25bf d731 c2be 7a15 b3bd
00000100: 551a 3e3e 1d7a 09be 007b 70bd 6c32 c5bc
00000110: c2af c03c af35 97be 0323 903f 3779 2ebe
00000120: 2ac9 d23e 042c 3ebf d312 b13e 1483 8ebe
00000130: ef8c 5cbe d0e3 79be fd1f 89be 3319 883d
00000140: b921 c33e c269 13bf c844 923c 03be 24bc
00000150: 093d 0cbc 78ad ad3c 10ae 21bf 20a9 893f
00000160: 112f 84be 29ad c93d 7ef5 1c3f 4b17 a73e
00000170: 8329 0fbf 3d96 4a3e 282f 443c 5841 31bf
00000180: 7a69 c23e 728c 1fbe d69e 4dbe d849 50be
00000190: e2e4 8f3f 61f1 053f 8b39 b93d fe9b a4be
000001a0: c4aa 623e 728b b8bf d73d 223e dafa 79bf
000001b0: 1267 de3d 750d 903d 9f42 f43c 62c6 c93f
000001c0: 9b4a 00be 3411 93be eab2 863d 5729 07bf
000001d0: 1222 fc3c 3f35 12bf 8049 c83e 721e 7cbf
000001e0: aa12 b83d c530 01bf f49c 5c3f c691 5a3f
000001f0: e56f cb3e 7b64 7bbe dfb5 2abf b628 f03e
00000200: 42ff a13e 2e05 dcbe b5a9 003e 8278 3c3e
00000210: fbca 923e 579f 033f f4b1 a93e 6078 56bf
00000220: 9a5c f23e aa3c 293f 8f34 b2bc 10f0 50bf
00000230: 93b3 123f 260c 273f 0f55 303f 4ab2 c13e
00000240: ff0e 273f 16e9 8dbf a0b8 89be c8ff de3c
00000250: eedb 7bbe 1463 d73f bef2 c13e 0682 b63e
00000260: f76f c13f d397 e73e b39d 12be 565c e53e
00000270: 68ab aa3d 2657 863f c0d2 823f 712d 903f
00000280: 45f3 103c b1e7 243f d623 f83e 5218 173e
00000290: ac3c fd3e 76aa 183f a9b9 d83d 798a 8c3f
000002a0: 3b25 62bf b8c5 78bf 0122 c63e 5410 3f3f
000002b0: 9050 163f 1c14 043f 2760 0b3f aa6e 593f
000002c0: 98e2 e2be 07f6 1fbf 6fa9 b83e edf9 24be
000002d0: ebc1 b4bf 90dc b8bc a4b1 623f 59c9 b6be
000002e0: f942 a3bf fff3 9c3c 1398 f9be 4cc0 43bf
000002f0: c7fb 84bc 5d0f 6a3d 1349 e03e b931 4fbe
00000300: d21f 1bbe 7f4a ae3d 591e 8a3e fe3d 19bf
00000310: 01fc f2be 4d5b 83bd b8aa 02be 9e8a de3f
00000320: 234e 013e 842c 043f 4b4a f33e a349 fe3e
00000330: 4725 063f 66c2 bc3e 7cb8 3e3d 03e7 783e
00000340: ac63 4fbd c2e4 ab3e 2482 38be e39f 09bf
00000350: 26e2 0d3f 5bf9 20bf c7ac 8cbe fb70 bd3e
00000360: 7540 fe3e e09c f83e 99be cabe 3059 68bf
00000370: ff87 9a3d bc16 6a3e 4498 a3be c043 213f
00000380: b7ba 0c3f 86c0 123f e57a 76bf 5fca 173e
00000390: 5383 c1be be7a 32bf 0bb2 a7bd 17c1 e3be
000003a0: 2287 353d a6ad 17bf 7bfc 823f 9d60 7a3f
000003b0: 219d b13e 74d5 823d 2acd 703c ce66 06be
000003c0: aedd ce3e 1d9b a03e 83fe 1e3f 8aaf 6a3e
000003d0: 39ca 263f eafb 15bf b6eb 9ebf e371 bcbe
000003e0: 0019 6abf 0d65 6ebf 0af5 bd3e 9a5e 683f
000003f0: 2c45 a13f bc6c 03bf f814 e3be 0a32 503f

l1.bias f4 [8]
1.7664624 1.2475574 0.79141665 0.70764554 1.3641678 1.0886155 0.6114755 0.5049571
00000000: 711b e23f f6af 9f3f 489a 4a3f 4228 353f
00000010: 0d9d ae3f c157 8b3f a989 1c3f de44 013f

l2.weight f4 [8, 8]
-0.046711445 -0.2354465 -0.3326991 -0.18838423 -0.32755578 0.19269118 -0.07798052 0.0053946376
2.5659318 1.0663177 -0.16157281 0.24316502 -0.58839786 1.0195678 -1.3616372 2.0926313
0.34187472 1.1577458 -2.5020497 0.64549977 2.041263 0.44783065 -0.8349876 0.8336578
0.23057237 1.5798119 1.1756496 -0.64974135 1.3397495 1.3406961 -0.97400045 -2.0714679
-0.80715805 -0.7085022 1.7547948 1.8921037 1.3718534 1.2016238 1.0893987 0.13586837
2.0041492 0.9454949 0.92803407 -1.6295079 0.7945483 -0.41201025 1.4301556 -1.4984149
1.8024194 -0.9510796 1.2574666 -0.58393437 0.7028383 -1.269327 0.91919434 1.036296
-0.36705077 0.9817081 0.033280857 -0.22227933 0.30258182 -0.19991009 1.5188544 0.93072635
00000000: 8054 3fbd e318 71be 8957 aabe cce7 40be
00000010: 64b5 a7be d650 453e 40b4 9fbd 80c5 b03b
00000020: 3a38 2440 197d 883f 5873 25be 4000 793e
00000030: 3ea1 16bf 3381 823f 214a aebf aced 0540
00000040: 340a af3e 0431 943f 9521 20c0 793f 253f
00000050: 0ea4 0240 0f4a e53e bfc1 55bf 996a 553f
00000060: 2a1b 6c3e 4737 ca3f b07b 963f 7355 26bf
00000070: e97c ab3f ee9b ab3f 1858 79bf ee92 04c0
00000080: e9a1 4ebf 6660 35bf 1e9d e03f 7430 f23f
00000090: e498 af3f cfce 993f 6b71 8b3f 1421 0b3e
000000a0: fb43 0040 f40b 723f a493 6d3f b793 d0bf
000000b0: 8467 4b3f 02f3 d2be 570f b73f 0fcc bfbf
000000c0: aeb5 e63f f479 73bf aaf4 a03f b97c 15bf
000000d0: 36ed 333f 4f79 a2bf 5250 6b3f 59a5 843f
000000e0: 14ee bbbe 3951 7b3f 8251 083d 319d 63be
000000f0: 01ec 9a3e 3bb5 4cbe d269 c23f 1544 6e3f

l2.bias f4 [8]
-0.046923727 0.72084105 0.27356604 0.6420685 0.5341077 0.7484642 0.55035335 -0.44988215
00000000: 1833 40bd 0a89 383f d910 8c3e 9a5e 243f
00000010: 48bb 083f 5a9b 3f3f f5e3 0c3f f456 e6be

l3.weight f4 [27, 8]
0.10545862 0.57046336 0.47548977 -0.17146167 -0.660551 -1.9675144 -2.4669986 0.398684
0.121536076 0.01968003 -1.3002634 0.24104308 -1.5478557 0.4557241 -0.21129623 -0.5631747
-0.003924072 1.1957141 -0.19211183 -1.0913161 -2.8061712 -0.04992729 -1.0009454 -0.43341625
-0.106579006 0.6259487 -1.6983664 -1.9226018 -2.9013276 0.32540008 0.80684906 -1.7569441
0.07468659 -2.240481 -3.1226327 0.7414547 -0.7197262 0.58155906 0.22523059 -0.46594283
-0.21043867 -0.069471486 -1.4135712 -1.6947428 -2.926289 0.6901002 -0.1454679 0.94080234
0.20678475 -0.2704524 0.09684137 -2.345886 -0.49568695 0.13080229 0.13625383 -0.16314323
-0.14004162 0.34118617 -2.1995804 -4.6946793 -0.4311068 0.143837 0.20519716 -0.55028033
0.18657199 -0.8422807 -1.6846784 -3.7642026 0.41346905 0.029248377 0.17783901 -0.108765334
0.27279797 0.31189546 0.10275528 0.63949287 -3.7996562 0.31210354 -0.048726354 -4.4399185
0.15969524 0.9998745 0.18038097 -2.1428533 -0.019777799 -1.4142824 -2.4606664 -2.675818
-0.25472966 -2.1579556 -1.5570028 -2.130094 1.0281008 -1.5053326 -0.59123456 0.20616926
0.1443533 0.6691128 0.6779154 -1.4991742 -0.99371 -0.57783556 0.15058163 -3.2566793
-0.1983185 -0.77341264 0.54262257 -0.2957605 0.14742748 -2.5404713 -3.7516487 0.7907582
-0.08640596 -2.2653978 0.002624234 0.19972907 0.7300128 -2.4999964 -1.0120401 -1.1673982
-0.1894178 -0.94377476 -2.673737 -1.9873854 -0.96219003 0.87543505 0.5845296 0.030675411
0.01769182 -0.039665084 0.7153046 -0.7301841 -1.7390571 -0.120811604 -1.1224532 1.1831201
0.111848 -0.5550735 0.6567773 0.5713487 0.077308 -2.8623936 -2.3079977 -1.916176
0.18591663 -2.3024344 0.51266694 -1.4890467 0.3400195 -1.5169679 -0.7201058 0.50278103
-0.3499875 0.0678728 0.46846423 1.0835968 -1.2795085 0.3621891 -2.5230799 -1.7127292
-0.2919006 -0.03816564 -0.23881729 -0.7559251 0.42084244 -1.5089823 -0.74768656 -0.25304452
-0.054787815 0.3858646 -0.9407314 0.48824254 0.41350585 -1.177428 -3.6514304 -2.5008638
-0.13523111 -1.525133 0.12808986 0.47541606 -0.16120987 -0.33809164 -1.4803474 0.42379117
-0.015205711 -1.0183566 0.12196427 0.36375296 0.18609186 -0.462584 -1.7504009 -0.035294056
-0.07202497 0.85067403 -1.9526651 -0.46598515 -0.31461692 -1.6552292 0.11281921 -1.7635273
0.13018623 -1.7246403 -0.5922052 -0.1766082 0.13736418 -0.38965324 0.38712195 -0.5209672
-0.35149792 -0.34821853 -0.6085876 0.18022802 0.10243647 0.15204199 -0.35392508 -3.9052436
00000000: b0fa d73d e309 123f 6573 f33e a693 2fbe
00000010: df19 29bf 83d7 fbbf 4ee3 1dc0 4f20 cc3e
00000020: e8e7 f83d 0438 a13c 086f a6bf ffd3 763e
00000030: 2320 c6bf ab54 e93e 0a5e 58be 382c 10bf
00000040: 8095 80bb 290d 993f f7b8 44be 3fb0 8bbf
00000050: 4f98 33c0 8f80 4cbd fb1e 80bf bce8 ddbe
00000060: 1846 dabd 2d3e 203f 1264 d9bf d117 f6bf
00000070: 5aaf 39c0 d79a a63e a98d 4e3f 8be3 e0bf
00000080: 48f5 983d 0a64 0fc0 37d9 47c0 facf 3d3f
00000090: fa3f 38bf 0ee1 143f d9a2 663e 0f90 eebe
000000a0: 3c7d 57be 1147 8ebd e7ef b4bf 55ed d8bf
000000b0: 5248 3bc0 68aa 303f 8af5 14be 6cd8 703f
000000c0: 62bf 533e bd78 8abe c554 c63d ff22 16c0
000000d0: aeca fdbe 09f1 053e 2086 0b3e 050f 27be
000000e0: 1267 0fbe f4af ae3e edc5 0cc0 d03a 96c0
000000f0: 08ba dcbe 024a 133e 341f 523e 2cdf 0cbf
00000100: ba0c 3f3e b59f 57bf 8ba3 d7bf b2e8 70c0
00000110: 37b2 d33e 4b9a ef3c 6e1b 363e 5cc0 debd
00000120: 2dac 8b3e c3b0 9f3e 5c71 d23d ceb5 233f
00000130: 912d 73c0 09cc 9f3e 4995 47bd d013 8ec0
00000140: 2687 233e c6f7 7f3f cab5 383e 8224 09c0
00000150: 0d05 a2bc 3507 b5bf 8f7b 1dc0 9a40 2bc0
00000160: ed6b 82be f21b 0ac0 de4b c7bf 7653 08c0
00000170: cf98 833f bdae c0bf 265b 17bf 091e 533e
00000180: 5ad1 133e fa4a 2b3f dd8b 2d3f f1e4 bfbf
00000190: c763 7ebf 08ed 13bf 1232 1a3e 6f6d 50c0
000001a0: 0114 4bbe 5ffe 45bf 50e9 0a3f ec6d 97be
000001b0: 3bf7 163e 1597 22c0 031b 70c0 216f 4a3f
000001c0: 9cf5 b0bd 47fc 10c0 57fb 2b3b c785 4c3e
000001d0: 1ee2 3a3f f1ff 1fc0 888a 81bf 4e6d 95bf
000001e0: bdf6 41be 399b 71bf 821e 2bc0 a562 febf
000001f0: 1652 76bf 831c 603f bba3 153f 004b fb3c
00000200: 70ee 903c db77 22bd 341e 373f 58ed 3abf
00000210: 6c99 debf 136c f7bd 8cac 8fbf 7b70 973f
00000220: 9010 e53d 4c19 0ebf 8f22 283f e943 123f
00000230: a853 9e3d 7531 37c0 3cb6 13c0 4145 f5bf
00000240: ee60 3e3e 165b 13c0 243e 033f 1599 bebf
00000250: 0917 ae3e 012c c2bf db58 38bf 42b6 003f
00000260: 9031 b3be e500 8b3d 8bda ef3e 4db3 8a3f
00000270: efc6 a3bf da70 b93e 247a 21c0 b63a dbbf
00000280: ff73 95be 9353 1cbd 858c 74be 4f84 41bf
00000290: a978 d73e 5526 c1bf 6368 3fbf 0d8f 81be
000002a0: 3069 60bd 0b90 c53e c6d3 70bf edfa f93e
000002b0: 0ab7 d33e f6b5 96bf 09b1 69c0 270e 20c0
000002c0: 067a 0abe 8f37 c3bf fd29 033e bc69 f33e
000002d0: 3314 25be 591a adbe 067c bdbf 28fb d83e
000002e0: 6021 79bc 8259 82bf 67c8 f93d d43d ba3e
000002f0: dd8e 3e3e cfd7 ecbe 230d e0bf 8090 10bd
00000300: d481 93bd c6c5 593f eef0 f9bf 9b95 eebe
00000310: 7815 a1be 8dde d3bf c20d e73d 43bb e1bf
00000320: 8a4f 053e 03c1 dcbf c39a 17bf c8d8 34be
00000330: 32a9 0c3e a180 c7be d934 c63e 1b5e 05bf
00000340: 89f7 b3be b349 b2be 66cc 1bbf b28d 383e
00000350: 36ca d13d e5b0 1b3e ab35 b5be 83ef 79c0

l3.bias f4 [27]
-0.039365675 0.29326513 0.16069324 0.29350394 -0.04135863 0.020363105 -0.05022924 -0.16754524
-0.40781853 0.3383105 0.28997883 0.39609835 0.41699335 -0.36084315 0.005031404 -0.119953305
-0.3347827 -0.3787486 -0.1864767 -0.27601692 0.29783762 -0.076792136 0.02005572 -0.25130942
0.2208252 -0.52454126 -0.24387182
00000000: e73d 21bd d926 963e c58c 243e 2646 963e
00000010: ab67 29bd 87d0 a63c 2dbd 4dbd fb90 2bbe
00000020: 97cd d0be 0937 ad3e 1b78 943e 67cd ca3e
00000030: 2780 d53e 6fc0 b8be 7ade a43b 14aa f5bd
00000040: a368 abbe 56eb c1be bff3 3ebe 1752 8dbe
00000050: 2c7e 983e 3245 9dbd e54b a43c a1ab 80be
00000060: 0020 623e 5648 06bf 89b9 79be
